android/app/src/main/assets/dn_classifier.tflite (tflite, 551472 bytes, 8 tensors)

arith.constant f4 [32]
0.0036984873 -0.01529654 -0.0015856244 -0.00083993824 -0.015723586 -0.0006075515 -0.011933113 0.008396567
0.0004810318 -0.0028746726 0.010936538 -0.012441588 -0.00938875 -0.024267927 0.009936895 -0.0066151544
-0.00013545572 -0.012396072 0.011449573 0.010373136 0.009119165 -0.0014773573 0.01105376 -0.0022020726
-0.0023183383 -0.013737625 0.004360791 -0.0118193505 -0.008468779 -0.0028972435 0.014124109 -0.030029206
00000000: 5262 723b 579e 7abc bad4 cfba 4d2f 5cba
00000010: c0ce 80bc 1744 1fba 1b83 43bc c191 093c
00000020: ff32 fc39 0165 3cbb 2a2f 333c cdd7 4bbc
00000030: 46d3 19bc 88cd c6bc 5cce 223c f0c3 d8bb
00000040: 1e09 0eb9 e518 4bbc fd96 3b3c 16f4 293c
00000050: 8d68 153c e3a3 c1ba d41a 353c a650 10bb
00000060: 43ef 17bb c713 61bc f7e4 8e3b f3a5 41bc
00000070: a2c0 0abc aedf 3dbb cf68 673c cfff f5bc

arith.constant1 f4 [32, 3, 3, 1]
0.06897479 -0.07414077 -0.04619272 0.09773406 -0.11899832 -0.08304338 -0.07776212 -0.0064891772
0.07654813 -0.13169523 0.016737135 0.13031071 -0.103444815 0.07189214 0.10504587 0.15677993
0.047407698 -0.0055168313 0.03387656 -0.067204885 -0.054744348 0.05703076 0.13948357 -0.13356003
0.14911187 0.01382569 0.00022111942 0.04304327 0.064088285 -0.09338283 0.08888247 -0.031058231
-0.0049167085 0.002295232 -0.13812414 0.052117873 0.0607337 -0.030078022 0.017212618 0.109558314
-0.037729464 0.14310578 0.03490395 -0.06379001 -0.08002475 -0.070612006 -0.09112071 -0.034346674
-0.014952972 0.114996135 -0.08514271 -0.059453934 0.14413162 0.13827017 0.17267108 0.17568898
-0.027970541 0.16428986 0.08932325 -0.05215579 0.09635044 0.027794313 -0.08389879 0.09685743
0.1357861 0.13303497 -0.04352163 -0.1308096 -0.033728626 -0.0769564 -0.07718712 0.020099558
0.116257295 -0.08479213 -0.07673326 -0.07694318 -0.046362475 0.045176096 0.100322336 0.12927184
-0.10361665 -0.019086542 -0.087383345 0.10818411 0.06258308 0.06832299 0.021038355 0.0018354991
-0.13754155 -0.016239688 -0.14338712 0.1406548 0.026688857 -0.011613717 -0.12670882 0.0856216
0.0377592 -0.062186975 -0.061721914 0.044562895 -0.009358678 0.048250366 0.112084486 0.14030486
-0.051641773 0.024313549 0.16415273 -0.033661176 -0.16944632 -0.06885386 -0.0009797885 0.07717282
0.054841135 0.0013766462 0.1423486 -0.03985642 0.040438548 0.091715015 0.07987025 -0.110726774
0.10471797 -0.07082715 0.13328844 0.0635478 0.11522264 0.09190658 -0.015938891 0.05133757
-0.068664424 0.008838571 -0.05821512 -0.11760177 0.050046522 0.14498134 -0.07729292 0.041831937
0.006732037 0.03319183 0.008186901 -0.12965664 -0.07946399 0.14438064 0.16196045 -0.012475011
-0.108504295 -0.07807678 0.12062945 -0.030539533 0.102286085 -0.031175166 -0.029147927 -0.14919963
-0.1318641 0.11742712 0.038263362 -0.06084029 -0.060025252 0.026813297 -0.03501602 0.08271623
-0.06994262 0.09100648 -0.10220076 -0.03430934 0.0757375 -0.050755728 0.004880634 0.125533
0.040409204 -0.15022875 -0.058628086 -0.10058072 0.10239463 0.1496439 -0.14950392 -0.1074091
0.13928872 0.06269187 -0.13709736 -0.10733274 0.08293651 0.076988235 0.08034252 0.052853875
-0.08760472 0.020483691 -0.047859393 -0.021534694 -0.12506217 -0.04655795 -0.15202628 -0.11655138
-0.08013193 -0.00703796 0.12461401 0.10411151 0.0212673 0.1510167 -0.00863708 -0.07094899
0.095770076 -0.06729584 -0.091887325 0.06303684 0.07678923 -0.13962036 0.04897209 -0.08623593
-0.09619682 0.0049400367 0.10225703 0.088790245 0.057290018 -0.039066657 -0.023721902 -0.100935735
-0.049459327 -0.004555235 -0.096971326 0.035807062 -0.11143751 -0.094563834 0.09527267 -0.030840542
-0.023967233 -0.040896602 -0.060030818 0.113491796 0.011874288 0.023780128 -0.064859115 -0.054730725
0.045215454 0.11043288 0.019749248 -0.12509385 -0.12214668 -0.08118004 0.02480629 -0.02783158
-0.09296678 -0.06510445 0.074700795 0.15027617 0.1239464 0.15046093 0.05146689 -0.07752753
-0.14638141 0.12057085 -0.050142214 -0.06618023 -0.076688826 0.08927763 -0.029352356 -0.058459852
00000000: a842 8d3d 1ed7 97bd 9434 3dbd cb28 c83d
00000010: 64b5 f3bd a612 aabd bf41 9fbd 2aa3 d4bb
00000020: 44c5 9c3d 1ddb 06be 511c 893c 2c70 053e
00000030: e0da d3bd 303c 933d 4a22 d73d eb8a 203e
00000040: 932e 423d 89c6 b4bb 26c2 0a3d b7a2 89bd
00000050: 9c3b 60bd 1699 693d c8d4 0e3e f6c3 08be
00000060: c8b0 183e 2685 623c 4bdc 6739 244e 303d
00000070: b840 833d 7f3f bfbd 0308 b63d d56d febc
00000080: 571c a1bb 9a6b 163b 6a70 0dbe 8d79 553d
00000090: e6c3 783d 2f66 f6bc 7a01 8d3c 1c60 e03d
000000a0: 368a 1abd 528a 123e 72f7 0e3d 56a4 82bd
000000b0: 04e4 a3bd 079d 90bd 7f9d babd 19af 0cbd
000000c0: 4ffd 74bc 1883 eb3d 4d5f aebd f885 73bd
000000d0: 3d97 133e b296 0d3e b0d0 303e d0e7 333e
000000e0: 7a22 e5bc 9a3b 283e 1cef b63d 4fa1 55bd
000000f0: 6153 c53d e6b0 e33c 21d3 abbd 305d c63d
00000100: 830b 0b3e 523a 083e bd43 32bd f4f2 05be
00000110: 0727 0abd 519b 9dbd 4814 9ebd d4a7 a43c
00000120: 4e18 ee3d 7fa7 adbd 5426 9dbd 6394 9dbd
00000130: 94e6 3dbd 920a 393d cc75 cd3d d65f 043e
00000140: f734 d4bd 615b 9cbc 0af6 b2bd a18f dd3d
00000150: 8f2b 803d ecec 8b3d a158 ac3c 2195 f03a
00000160: b1d7 0cbe 1809 85bc 13d4 12be d007 103e
00000170: 97a2 da3c 7647 3ebc f5bf 01be 615a af3d
00000180: 64a9 1a3d c5b7 7ebd 1ed0 7cbd 9587 363d
00000190: 2455 19bc 2da2 453d 8d8c e53d 14ac 0f3e
000001a0: 5386 53bd 352d c73c a717 283e 4de0 09bd
000001b0: 5683 2dbe 4103 8dbd 3f6c 80ba c90c 9e3d
000001c0: 19a1 603d 9570 b43a d5c3 113e 7c40 23bd
000001d0: e4a2 253d 15d5 bb3d 0393 a33d b8c4 e2bd
000001e0: 6076 d63d d30d 91bd c47c 083e 5925 823d
000001f0: d9f9 eb3d 8439 bc3d 4792 82bc 5847 523d
00000200: ef9f 8cbd a7cf 103c fa72 6ebd 32d9 f0bd
00000210: 95fd 4c3d fd75 143e c04b 9ebd f757 2b3d
00000220: 6b98 dc3b 28f4 073d 5a22 063c b6c4 04be
00000230: 04be a2bd 85d8 133e f6d8 253e fd63 4cbc
00000240: 8037 debd b8e6 9fbd 930c f73d 0b2e fabc
00000250: 5e7b d13d 1063 ffbc a2c7 eebc cac7 18be
00000260: 6207 07be a17d f03d 0bba 1c3d ab33 79bd
00000270: 0add 75bd 8fa7 db3c f56c 0fbd 2067 a93d
00000280: 143e 8fbd 9b61 ba3d a24e d1bd f387 0cbd
00000290: 431c 9b3d 3de5 4fbd baed 9f3b b98b 003e
000002a0: 1f84 253d 91d5 19be 0124 70bd 44fd cdbd
000002b0: 47b4 d13d 403c 193e 8e17 19be 4df9 dbbd
000002c0: b4a1 0e3e 9864 803d 4063 0cbe 45d1 dbbd
000002d0: 9eda a93d 02ac 9d3d 9e8a a43d 4e7d 583d
000002e0: 1a6a b3bd 6acd a73c 3608 44bd 8769 b0bc
000002f0: 4c10 00be 8db3 3ebd c7ac 1bbe 7db2 eebd
00000300: 361c a4bd b09e e6bb a135 ff3d 6a38 d53d
00000310: c338 ae3c 1fa4 1a3e 8a82 0dbc b44d 91bd
00000320: 1a23 c43d 67d2 89bd 6c2f bcbd 7519 813d
00000330: ac43 9d3d a4f8 0ebe f596 483d 779c b0bd
00000340: d702 c5bd 08e0 a13b 226c d13d a9d7 b53d
00000350: f0a8 6a3d 5c04 20bd 6f54 c2bc 65b7 cebd
00000360: dd95 4abd 1544 95bb e798 c6bd 6daa 123d
00000370: 5939 e4bd afaa c1bd 511e c33d 4ea5 fcbc
00000380: ee56 c4bc 3283 27bd e0e2 75bd 636e e83d
00000390: 608c 423c 8bce c23c dbd4 84bd 532d 60bd
000003a0: d733 393d a22a e23d 2dc9 a13c 9a18 00be
000003b0: 0a28 fabd b941 a6bd 9036 cb3c 0eff e3bc
000003c0: 5e65 bebd 7b55 85bd bbfc 983d ffe1 193e
000003d0: 9cd7 fd3d 6e12 1a3e f2ce 523d c1c6 9ebd
000003e0: 02e5 15be daed f63d ec61 4dbd 8089 87bd
000003f0: 080f 9dbd 31d7 b63d 5a74 f0bc 9973 6fbd

arith.constant3 f4 [128]
0.0013730365 0.009614358 0.0042755045 -0.0059498064 0.004179192 0.0011865312 0.0028347366 -0.012730825
0.0067117945 0.00048404315 -0.0059952 0.0040596835 0.0034657563 0.002116681 0.007307635 0.0030215285
0.0023356325 -0.0083423685 -0.0064187357 0.0037995756 0.0031416086 -0.0042454456 0.0006718506 0.0019743121
0.00013686556 0.004587156 -0.005984509 0.0024048253 -0.0023835457 0.004455026 0.0050823013 0.0053928047
-0.004933421 0.0021464867 0.003955813 -0.0061466447 -0.005907988 -0.0012566955 0.0025137751 -0.0055573815
0.0038956117 0.0017419009 0.004999476 -0.0060002585 -0.0013669275 -0.0064132023 0.0020999317 0.005062367
0.0071347146 0.0044917488 0.004013983 -0.00051845005 -0.015412284 -0.0054621845 -0.00085789687 0.005691928
-0.0074820495 -0.0060045575 0.003317719 -0.0052239825 0.0010201213 0.001137494 0.002699058 0.0032053376
0.0061765895 0.0060896394 0.00094793784 0.0012309934 0.0057916115 0.0035006474 0.005576352 0.00021554223
0.009483338 0.00092984573 0.00322766 0.00060524617 0.0028251717 0.0007668299 -0.0060035833 0.0025178848
0.005508036 0.003811517 0.004151171 0.00061702455 -0.005631869 0.0031909973 0.0029378312 -0.0049295556
-0.0060021635 -0.005554264 -0.0051504066 0.002390777 0.003933416 -0.0060040103 0.0047054244 0.004438893
0.004046345 0.004461199 -0.0071296524 0.00601882 0.0011697878 -0.007106251 -0.005999569 0.00036089553
0.0023834393 0.00047502897 0.0040752245 -0.0012874933 0.005071451 0.0050552175 0.000114729955 -0.004109372
0.0052995305 -0.0059452294 0.0037863285 0.004639465 0.0007109496 -0.0058971858 -0.006004766 -0.006002861
0.0031770384 0.0030090308 0.004277047 0.0031784256 0.001514091 0.0018034561 0.0018630542 0.002598041
00000000: 76f7 b33a 8a85 1d3c 8819 8c3b 98f6 c2bb
00000010: 9af1 883b 6185 9b3a fdc6 393b f394 50bc
00000020: 9dee db3b 2cc7 fd39 6273 c4bb 1807 853b
00000030: be21 633b 04b8 0a3b e374 ef3b d604 463b
00000040: 6911 193b 6eae 08bc 4254 d2bb 4d02 793b
00000050: 72e3 4d3b 611d 8bbb 211f 303a 7663 013b
00000060: 9283 0f39 db4f 963b b319 c4bb 469a 1d3b
00000070: 4335 1cbb 77fb 913b 6f89 a63b 20b6 b03b
00000080: 89a8 a1bb 12ac 0c3b c49f 813b cb69 c9bb
00000090: cc97 c1bb b4b7 a4ba 26be 243b b21a b6bb
000000a0: 854d 7f3b 7f50 e43a a5d2 a33b d19d c4bb
000000b0: 7a2a b3ba d725 d2bb 029f 093b 36e2 a53b
000000c0: 53ca e93b 852f 933b bb87 833b 98e8 07ba
000000d0: ce83 7cbc 20fc b2bb 7ce4 60ba 5a83 ba3b
000000e0: fb2b f5bb e1c1 c4bb 176e 593b f12d abbb
000000f0: 97b5 853a f717 953a aee2 303b a410 523b
00000100: fd64 ca3b 998b c73b 087f 783a 4959 a13a
00000110: 8fc7 bd3b 1e6b 653b d5b9 b63b 2d03 6239
00000120: 0160 1b3c e4c0 733a 2687 533b 62a9 1e3a
00000130: 8426 393b 1505 493a b5b9 c4bb 1903 253b
00000140: c17c b43b a5ca 793b 8c06 883b d1bf 213a
00000150: 8b8b b8bb 0d20 513b a188 403b 1c88 a1bb
00000160: ccad c4bb 8b00 b6bb bec4 a8bb 95ae 1c3b
00000170: e3e3 803b 4abd c4bb f62f 9a3b 2274 913b
00000180: 3497 843b 402f 923b dc9f e9bb 8639 c53b
00000190: 9153 993a 8edb e8bb 0898 c4bb 9436 bd39
000001a0: 7a33 1c3b 4f0d f939 7689 853b 1bc1 a8ba
000001b0: 6a2e a63b 3da6 a53b 2d9b f038 e9a7 86bb
000001c0: afa7 ad3b 33d0 c2bb 0d24 783b a706 983b
000001d0: 055f 3a3a 2e3d c1bb a1c3 c4bb a6b3 c4bb
000001e0: dc35 503b 2933 453b 7826 8c3b 224d 503b
000001f0: 7774 c63a f261 ec3a ba31 f43a e543 2a3b

arith.constant4 f4 [2]
0.0012140046 -0.0012140045
00000000: 3c1f 9f3a 3b1f 9fba

arith.constant5 f4 [2, 128]
-0.09303217 0.06940642 0.094418675 -0.18151739 -0.039971158 -0.05622381 -0.20915878 0.08518297
0.13933848 -0.12770842 -0.026358612 -0.21997638 -0.1180882 -0.047283534 0.12937403 -0.026132192
0.21204525 -0.055250514 -0.11233814 0.1486262 -0.015008904 0.09358609 -0.17523792 0.18043125
-0.19438127 0.1633303 -0.17781374 -0.12792589 -0.08328896 0.013699458 0.008356848 0.19986297
-0.13700412 0.015128776 -0.011665069 0.20057087 0.0959234 0.09678903 -0.22592466 -0.17090623
0.09098869 -0.14415796 0.1321473 0.06393457 -0.19294955 0.09524242 0.22152847 -0.13571611
-0.08565735 -0.061930634 0.1621707 0.025101151 -0.014626847 -0.08674145 0.20806584 0.21334967
-0.122941576 -0.13381974 0.18228579 0.1330166 -0.08043979 0.20583881 0.123322934 -0.13137834
0.020093013 -0.044774562 -0.117255434 0.034124807 -0.09871329 0.049093097 0.14136925 0.093261726
0.22623535 -0.19437206 -0.073724635 -0.108722284 0.03913988 -0.17677794 0.14587267 -0.16407892
0.18895714 -0.112572104 0.124984264 -0.16787776 -0.12882644 -0.047711406 0.08194506 0.1525969
-0.1675388 -0.050365232 0.15992345 0.18684685 -0.15511464 -0.063462496 0.120945714 -0.17884506
0.1482889 -0.097901635 0.096079156 -0.0115221 0.19358268 -0.006704455 0.09610631 -0.09090765
-0.17320557 -0.13684803 -0.09865704 -0.19824165 0.05498918 -0.0832374 -0.13444023 0.19220093
-0.14534426 -0.12564465 -0.13083833 0.15034054 -0.18517882 -0.1891912 -0.19556093 -0.17118235
0.08869946 0.11870297 -0.07665391 -0.034076996 -0.23301043 -0.1088218 0.16935322 0.20662881
0.19185518 0.002430656 -0.11327505 -0.18219143 0.1184657 0.16526918 -0.14125198 -0.060652986
0.04194081 -0.017745635 -0.015698314 0.10277504 -0.049592517 0.16675104 -0.00020082318 -0.14816336
-0.026642246 0.15677117 -0.11547422 -0.15898293 -0.18014981 0.11774126 0.16027765 -0.2016938
-0.21268071 -0.22835727 -0.13300462 0.0047777104 -0.020879462 -0.15666723 -0.084797576 -0.0732015
0.09785252 -0.12679484 -0.093400404 0.117125146 0.0880677 -0.20157221 -0.14807422 0.107360184
-0.20537588 0.025738752 0.028891698 -0.18886031 0.2078622 0.04048237 -0.18322745 0.050359417
-0.024682134 -0.17936762 -0.09168419 0.10279216 0.11765669 0.14313929 0.12944147 0.079041705
0.051385682 0.20257059 -0.0057654404 -0.1349638 0.1828448 0.13204399 -0.036246616 0.16456868
-0.041147444 0.058077157 -0.046584953 0.12834218 -0.15030386 -0.086587384 0.047171112 -0.12640987
0.17753498 0.026681598 0.016068496 0.20094079 -0.18905477 0.07237661 0.012062401 -0.09282421
0.023271205 -0.02509631 -0.13491255 0.17580123 0.031758796 0.20977122 -0.16084093 0.2031249
0.01351747 0.0600408 -0.084327556 -0.049583193 0.21756199 0.011045953 -0.018370163 0.00043881466
-0.18989898 -0.060748395 0.08300285 -0.18141714 -0.20454228 -0.16554606 -0.115909494 0.20096926
-0.1066345 0.006431572 -0.01476725 0.15982641 0.16579217 -0.14413185 0.00054351846 -0.20114326
0.03699136 -0.117451735 -0.011672829 0.058366556 -0.05891514 -0.18735293 0.15754925 -0.056003924
-0.07910627 -0.07500723 0.009770054 -0.018167535 0.08061471 0.016397422 -0.15602215 0.10980713
00000000: a687 bebd f424 8e3d 945e c13d b2df 39be
00000010: ccb8 23bd f04a 66bd b82d 56be 6974 ae3d
00000020: bfae 0e3e ffc5 02be 04ee d7bc 7d41 61be
00000030: 3ad8 f1bd 61ac 41bd a07a 043e 2e13 d6bc
00000040: 6422 593e 5d4e 62bd 8a11 e6bd 7731 183e
00000050: e8e7 75bc 10aa bf3d 9271 33be f8c2 383e
00000060: e20b 47be 0f40 273e ce14 36be 01ff 02be
00000070: 6793 aabd b173 603c 29eb 083c e1a8 4c3e
00000080: cf4a 0cbe b0de 773c d81e 3fbc 7362 4d3e
00000090: 7d73 c43d 5439 c63d cb58 67be 0b02 2fbe
000000a0: 4758 ba3d 259e 13be 9f51 073e 21f0 823d
000000b0: 9194 45be 750e c33d 5cd8 623e 2af9 0abe
000000c0: 1f6d afbd faaa 7dbd 1310 263e eea0 cd3c
000000d0: 71a5 6fbc 80a5 b1bd 360f 553e 5678 5a3e
000000e0: cbc8 fbbd 0b08 09be 20a9 3a3e 8135 083e
000000f0: 9ebd a4bd 69c7 523e bc90 fc3d 0b88 06be
00000100: 1a9a a43c 8865 37bd 9e23 f0bd 74c6 0b3d
00000110: 322a cabd d815 493d 1ac3 103e 0100 bf3d
00000120: 3daa 673e 7809 47be f1fc 96bd caa9 debd
00000130: 2451 203d 4705 35be a55f 153e 4e04 28be
00000140: fb7d 413e 348c e6bd c0f7 ff3d 26e8 2bbe
00000150: 14eb 03be 096d 43bd d0d2 a73d 5d42 1c3e
00000160: 4b8f 2bbe c64b 4ebd f9c2 233e c854 3f3e
00000170: 5fd6 1ebe a0f8 81bd 63b2 f73d 2923 37be
00000180: 0cd9 173e a780 c8bd 26c5 c43d 31c7 3cbc
00000190: 8a3a 463e 0bb1 dbbb 63d3 c43d ca2d babd
000001a0: cd5c 31be e421 0cbe b40c cabd dcff 4abe
000001b0: 563c 613d 5f78 aabd b3aa 09be 52d0 443e
000001c0: 20d5 14be fea8 00be 7cfa 05be dff2 193e
000001d0: 849f 3dbe 57bb 41be 2041 48be 6d4a 2fbe
000001e0: 10a8 b53d 8b1a f33d bafc 9cbd 5294 0bbd
000001f0: 499a 6ebe f7dd debd ee6a 2d3e 8196 533e
00000200: af75 443e a44b 1f3b c0fc e7bd 6490 3abe
00000210: 259e f23d 533c 293e 5ca4 10be 446f 78bd
00000220: 20ca 2b3d 4b5f 91bc c099 80bc b87b d23d
00000230: 8621 4bbd c9c0 2a3e 1094 52b9 23b8 17be
00000240: d740 dabc 9f88 203e bf7d ecbd 6ccc 22be
00000250: 3179 38be 5422 f13d d31f 243e d288 4ebe
00000260: f9c8 59be 7dd6 69be 5d32 08be 578e 9c3b
00000270: 680b abbc 606d 20be 5aaa adbd abea 95bd
00000280: e766 c83d 82d6 01be b648 bfbd 4fdf ef3d
00000290: d75c b43d f268 4ebe c5a0 17be a8df db3d
000002a0: 0e4e 52be 13da d23c 48ae ec3c 9964 41be
000002b0: d4d9 543e d7d0 253d fa9f 3bbe ad45 4e3d
000002c0: 3032 cabc 25ac 37be ecc4 bbbd b284 d23d
000002d0: fef5 f03d 1b93 123e 4e8c 043e 9ee0 a13d
000002e0: cb79 523d aa6e 4f3e 05ec bcbb f333 0abe
000002f0: ab3b 3b3e 8a36 073e 5577 14bd b184 283e
00000300: 398a 28bd 50e2 6d3d ddcf 3ebd 226c 033e
00000310: 41e9 19be ba54 b1bd 7f36 413d 9771 01be
00000320: bbcb 353e 5e93 da3c 14a2 833c 6cc3 4d3e
00000330: 9397 41be 303a 943d 60a1 453c 9f1a bebd
00000340: 41a3 be3c c796 cdbc 8426 0abe 3d05 343e
00000350: 8315 023d 44ce 563e 7cb3 24be f9ff 4f3e
00000360: 6178 5d3c 58ed 753d edb3 acbd bf17 4bbd
00000370: 92c8 5e3e 16fa 343c 067d 96bc b510 e639
00000380: e174 42be 4fd3 78bd 66fd a93d 6ac5 39be
00000390: 8873 51be e884 29be f561 edbd e3ca 4d3e
000003a0: 3063 dabd f0bf d23b 56f2 71bc 89a9 233e
000003b0: 6cc5 293e 4d97 13be e87a 0e3a 80f8 4dbe
000003c0: 4184 173d 898a f0bd 653f 3fbc c511 6f3d
000003d0: 0051 71bd 72d9 3fbe 9754 213e 5f64 65bd
000003e0: 7802 a2bd 649d 99bd 9412 203c 15d4 94bc
000003f0: 5319 a53d e353 863c 45c4 1fbe 90e2 e03d

arith.constant6 f4 [64]
-0.00027388122 -0.018900039 0.00076377176 -0.016286487 0.0004308339 -0.0050989212 -0.013464419 -0.021090636
-0.00046943565 -0.0070283124 0.0038230596 -0.020158071 -0.012548727 -0.0043186094 -0.0019388916 0.001017227
-0.007862243 0.0003693909 -0.010176845 -0.022272466 -0.0034680266 -0.00065915944 -0.003100094 0.0007488949
0.0067713265 0.00019069057 -0.016759472 -0.017782705 -0.012793198 -0.004722924 -0.010166373 0.001704814
-0.0064100926 -0.009766186 -0.01501331 -0.009107148 -0.0065403897 -0.0021433488 -0.010711713 0.0026694997
0.007303666 -0.017319838 -0.02439364 -0.0042706635 0.007178603 0.007662945 -0.007707443 -0.01547939
-0.0013054207 -0.0106136855 -0.00078425463 -0.0054833307 0.005068493 -0.015820988 -0.01862259 0.006963629
-0.01757426 -0.0028264842 -0.0075495034 -0.01105646 0.004251581 -0.0032772673 -0.00979372 -0.0014980704
00000000: b797 8fb9 41d4 9abc db37 483a 3d6b 85bc
00000010: 8ce1 e139 da14 a7bb de99 5cbc 45c6 acbc
00000020: 961e f6b9 c24d e6bb 4c8c 7a3b 8a22 a5bc
00000030: 2d99 4dbc 1f83 8dbb 6822 feba 7954 853a
00000040: a3d0 00bc cfaa c139 c8bc 26bc bf74 b6bc
00000050: d547 63bb 71cb 2cba f22a 4bbb 7c51 443a
00000060: 01e2 dd3b 1cf4 4739 294b 89bc 09ad 91bc
00000070: 909a 51bc c2c2 9abb dc90 26bc 1174 df3a
00000080: c10b d2bb 5a02 20bc 63fa 75bc 2636 15bc
00000090: c450 d6bb 6d77 0cbb 2e80 2fbc c6f2 2e3b
000000a0: 9753 ef3b 55e2 8dbc 2cd5 c7bc ecf0 8bbb
000000b0: 7d3a eb3b 7119 fb3b b88e fcbb 449d 7dbc
000000c0: a61a abba 06e5 2dbc 7096 4dba 83ad b3bb
000000d0: 9a15 a63b 049b 81bc 678e 98bc 272f e43b
000000e0: e5f7 8fbc 893c 39bb d361 f7bb 2826 35bc
000000f0: d950 8b3b 6cc7 56bb d775 20bc e75a c4ba

tfl.pseudo_qconst i1 [64, 3, 3, 32]
-78 -11 81 20 -52 52 113 -70
25 25 -10 96 -62 104 -63 85
68 -63 -40 -41 -48 -3 86 -54
43 -56 -46 16 62 30 73 -37
112 -20 99 90 2 -14 63 -72
-36 -97 -21 87 44 65 46 10
-55 21 64 71 94 -71 98 -73
105 -104 -74 74 -61 56 -6 -98
13 -23 61 -24 -22 57 -96 -112
-47 14 7 -28 46 -8 -80 55
9 -65 -11 -24 -73 -13 -23 -39
60 17 -40 22 -64 -26 -3 -91
97 52 87 126 39 -58 -22 -1
102 -2 48 75 -14 -38 -88 103
-79 84 -60 -21 12 27 -97 59
32 18 -78 60 -54 -79 -50 -8
-16 -68 3 76 -66 -112 23 -12
-20 6 -2 -24 -74 34 -15 71
-33 -51 15 -111 26 -12 -23 69
-9 14 7 -37 25 -115 -88 17
107 20 16 19 -111 4 -43 -94
-70 -56 -58 -91 -96 62 -13 -45
81 -56 -8 -69 -32 18 71 0
-7 64 52 -112 -46 100 108 29
42 -37 -44 -22 68 -105 92 78
93 0 88 -61 25 6 -3 32
41 80 2 -21 110 11 -59 -66
-83 -60 -55 -68 9 -86 -57 81
34 48 -30 33 28 -32 -24 -82
99 26 -23 -87 4 -21 -4 -104
-27 54 -72 0 -53 62 -114 67
16 -35 50 19 -93 -69 -39 24
00000000: b2f5 5114 cc34 71ba 1919 f660 c268 c155
00000010: 44c1 d8d7 d0fd 56ca 2bc8 d210 3e1e 49db
00000020: 70ec 635a 02f2 3fb8 dc9f eb57 2c41 2e0a
00000030: c915 4047 5eb9 62b7 6998 b64a c338 fa9e
00000040: 0de9 3de8 ea39 a090 d10e 07e4 2ef8 b037
00000050: 09bf f5e8 b7f3 e9d9 3c11 d816 c0e6 fda5
00000060: 6134 577e 27c6 eaff 66fe 304b f2da a867
00000070: b154 c4eb 0c1b 9f3b 2012 b23c cab1 cef8
00000080: f0bc 034c be90 17f4 ec06 fee8 b622 f147
00000090: dfcd 0f91 1af4 e945 f70e 07db 198d a811
000000a0: 6b14 1013 9104 d5a2 bac8 c6a5 a03e f3d3
000000b0: 51c8 f8bb e012 4700 f940 3490 d264 6c1d
000000c0: 2adb d4ea 4497 5c4e 5d00 58c3 1906 fd20
000000d0: 2950 02eb 6e0b c5be adc4 c9bc 09aa c751
000000e0: 2230 e221 1ce0 e8ae 631a e9a9 04eb fc98
000000f0: e536 b800 cb3e 8e43 10dd 3213 a3bb d918

tfl.pseudo_qconst1 i1 [128, 4096]
26 -12 18 -39 4 46 6 -1
-34 31 51 25 5 -15 -10 23
19 7 25 -2 8 15 -53 37
6 23 42 -21 50 -35 21 -66
43 2 -61 22 14 37 -21 -7
43 -6 -61 37 38 26 -24 -54
-38 -36 -5 29 18 -10 -2 26
60 -29 -3 30 65 -49 -39 -31
14 24 -49 36 -5 -15 7 35
14 -78 -3 34 38 49 29 4
-22 33 19 35 38 17 -32 71
3 0 -23 6 36 47 -14 -44
48 27 36 45 -37 53 13 -7
27 -12 27 -2 -44 0 41 33
-41 44 -21 -17 66 -37 -60 16
12 46 7 35 -23 -34 -31 -33
62 24 -57 -39 -67 69 -64 -2
-51 37 4 32 43 -62 41 73
-45 -4 -5 -47 1 71 -30 -51
-40 52 -35 -30 -70 -25 16 -43
15 -41 -63 -8 39 -65 31 -40
-20 -9 -19 -56 -4 13 -47 28
-33 -47 58 -8 -21 -68 30 41
45 29 52 -25 -14 27 -28 -6
-12 -50 55 38 60 58 -58 2
31 -4 -11 -17 -2 23 6 27
-21 51 59 -49 -57 -43 12 -6
19 52 -60 5 51 48 -21 23
70 45 11 -1 46 18 33 49
-31 -42 -74 3 58 13 30 -26
-69 29 79 32 17 -2 33 29
-37 46 10 -59 58 45 -59 10
00000000: 1af4 12d9 042e 06ff de1f 3319 05f1 f617
00000010: 1307 19fe 080f cb25 0617 2aeb 32dd 15be
00000020: 2b02 c316 0e25 ebf9 2bfa c325 261a e8ca
00000030: dadc fb1d 12f6 fe1a 3ce3 fd1e 41cf d9e1
00000040: 0e18 cf24 fbf1 0723 0eb2 fd22 2631 1d04
00000050: ea21 1323 2611 e047 0300 e906 242f f2d4
00000060: 301b 242d db35 0df9 1bf4 1bfe d400 2921
00000070: d72c ebef 42db c410 0c2e 0723 e9de e1df
00000080: 3e18 c7d9 bd45 c0fe cd25 0420 2bc2 2949
00000090: d3fc fbd1 0147 e2cd d834 dde2 bae7 10d5
000000a0: 0fd7 c1f8 27bf 1fd8 ecf7 edc8 fc0d d11c
000000b0: dfd1 3af8 ebbc 1e29 2d1d 34e7 f21b e4fa
000000c0: f4ce 3726 3c3a c602 1ffc f5ef fe17 061b
000000d0: eb33 3bcf c7d5 0cfa 1334 c405 3330 eb17
000000e0: 462d 0bff 2e12 2131 e1d6 b603 3a0d 1ee6
000000f0: bb1d 4f20 11fe 211d db2e 0ac5 3a2d c50a
