android/app/src/main/assets/dne_classifier_with_metadata.tflite (tflite, 552852 bytes, 8 tensors)

arith.constant f4 [32]
000000 35 10 0e 3d ba df ca ba 9a 5e b5 3d 57 fb 80 3d
       0.034683425 -0.0015478053 0.088559344 0.06297939
000010 e5 b6 46 3d 2c 3e d8 3c 48 9c 60 3d f3 c7 12 3c
       0.048514266 0.026396833 0.05483654 0.008958804
000020 82 fd c6 3c 79 fd 8d 3d 0a a0 61 bc 44 83 8d b9
       0.024290804 0.06933112 -0.013771066 -0.00026991416
000030 01 51 67 3d c8 12 5e 3d 64 98 bc 3d 3b 7b 3c 3d
       0.056473736 0.05421713 0.09208754 0.04601596
000040 75 c8 ae 3d bb 44 08 bd 7b 1f 84 3d 39 41 4c bd
       0.08534328 -0.03326867 0.06451317 -0.04986689
000050 fb f9 b9 3d fd 5f 23 3d 60 57 0e 3c 81 7f cb 3c
       0.09080883 0.039886463 0.008687824 0.024841072
000060 99 2c ab 3c a5 4f 9e 39 3d 4e 2f bd 37 c5 83 3d
       0.02089529 0.00030195448 -0.042799223 0.064341
000070 1b 5b 85 bd 03 67 ec 3c 29 20 bf 3c ef 3c 11 3d
       -0.065115176 0.028857714 0.023330765 0.0354585

arith.constant1 f4 [32, 3, 3, 1]
000000 b5 a3 e7 3d 48 22 c0 3c e3 97 29 3e 3f 41 25 be
       0.113105215 0.023453847 0.16561846 -0.1613817
000010 a4 4c 2c be b2 7a 8c bd 40 f8 c7 3d 98 34 7f 3c
       -0.16826111 -0.0685934 0.09764147 0.015576504
000020 10 40 a6 bd 09 f7 db bc 8a a9 03 be 20 35 0e 3e
       -0.08117688 -0.026851194 -0.12857643 0.13887453
000030 04 6c 0f 3d 57 dd 4b 3d 62 f6 21 3e 8b 16 a3 3c
       0.03501512 0.049771633 0.15816644 0.01990821
000040 59 72 2f be bc ca 4f bd c9 71 45 3e 9f d4 16 3d
       -0.17133464 -0.050730452 0.19281687 0.036823865
000050 43 59 43 bd d4 3e 56 bd 0a 2a 64 bd fd 4f 4c 3d
       -0.04769255 -0.05230601 -0.055704154 0.04988097
000060 d9 aa a0 3c 95 92 b0 bd 8f b0 07 be ef fc 83 bc
       0.019612717 -0.08621708 -0.13250946 -0.01611182
000070 05 58 59 bd 20 e0 ec 3c fa 3b b5 3c 0d b6 00 be
       -0.053062458 0.028915465 0.022123326 -0.12569447
000080 ec 6f 4d 3d d1 0f d2 bc 36 ca e9 bd eb f0 33 3e
       0.050155565 -0.025642307 -0.11415522 0.17572372
000090 3e 9b c1 3d bf 3a 48 be ee 43 28 be 5b b2 32 3e
       0.09453438 -0.1955366 -0.16432163 0.1745085
0000a0 cd 92 8e bd ba f4 2e be da e0 48 3e 31 65 c5 3d
       -0.06961594 -0.17085543 0.19617024 0.09638441
0000b0 6b 62 00 3d fc ad 67 bd 7c d7 26 be 2c 94 e3 bd
       0.03134386 -0.05656241 -0.16293138 -0.11112246
0000c0 f8 24 90 3d fe 9d 1f 3c 91 2b 35 3c e4 be 32 3d
       0.07038301 0.009742258 0.01105775 0.04363908
0000d0 c3 a8 b9 3d 22 16 a9 3d ba a8 cc bb f2 ff f1 bd
       0.09065392 0.082561746 -0.0062456997 -0.11816396
0000e0 04 66 ef bc d3 e4 d8 3d dd 43 a2 3c 62 5e f0 bd
       -0.02922345 0.1059052 0.01980775 -0.11736752
0000f0 6e a7 b8 3c a6 12 b3 3d 1a 39 a8 3b fe 4c ba bd
       0.022540774 0.08743791 0.00513376 -0.09096716
000100 9b 0e 0b be c1 8d 05 be 91 8c 7d 3c 82 5b e8 bd
       -0.1357979 -0.13042356 0.015475408 -0.11345579
000110 0d ce 41 3d 17 a2 0c 3e 2a d1 91 3d 9c 45 47 3e
       0.047315646 0.13733707 0.07119973 0.19460148
000120 51 54 0c bd 7f 71 1a be 65 bf e0 bd 76 7d 09 3c
       -0.034260098 -0.15082358 -0.109740056 0.008391729
000130 0f ce 28 bd 44 1b 51 bd 65 77 3d 3e c9 90 11 3e
       -0.041212138 -0.051051393 0.18502577 0.14215387
000140 3d 04 1f 3d 7c c1 b1 3d 23 ef b7 bd ed a1 b8 bb
       0.0388224 0.08679482 -0.089811586 -0.0056345374
000150 3d d2 27 3d 17 e4 27 bd 22 80 9d bd f9 a8 8d 3d
       0.040971983 -0.040989008 -0.07690455 0.069169946
000160 11 93 4a bd 11 65 f2 3b 82 40 76 3d a7 ae a9 3c
       -0.04945666 0.007397302 0.060120113 0.020713164
000170 6c ac 17 be ac 27 c3 3c 2e 79 7f bc 96 47 30 bd
       -0.14811867 0.023822628 -0.015592856 -0.04303702
000180 00 57 23 3e a4 ee 08 3e d5 87 38 bd 23 75 13 3e
       0.15951157 0.13372284 -0.045051415 0.14400153
000190 7a d5 02 3e da ad b3 bd af 26 34 3e bf 28 74 3c
       0.12776747 -0.08773394 0.17592882 0.014902293
0001a0 63 ec 3d be ce 58 10 3e 26 d2 34 be eb 53 d5 bd
       -0.18547206 0.14096376 -0.1765829 -0.10416397
0001b0 a4 b8 27 bd e3 21 bc 3b b4 5e 4b bd 73 e6 95 bd
       -0.04094757 0.0057413443 -0.049650863 -0.07319345
0001c0 5c ad e1 bd 02 8b 32 bd 29 ce cd 3d 0e 10 bf 3d
       -0.11019394 -0.0435896 0.100490876 0.09329234
0001d0 13 65 99 3d 78 54 08 3e 0f ca 6e bd e1 f4 25 3c
       0.074899815 0.13313472 -0.058298167 0.010129184
0001e0 5b 40 c7 3d 2b 73 cd bc aa e1 b5 3d 47 2b 31 bd
       0.09729072 -0.02507933 0.08880933 -0.043254163
0001f0 f8 c2 bc bd 8e 38 20 be cd 8e d6 bd 5e f0 e5 3d
       -0.09216875 -0.15646574 -0.10476456 0.11227487
000200 55 e8 93 bd 16 cc a6 bd 6a 94 c9 bd e7 2e 26 bc
       -0.07222048 -0.08144395 -0.09842761 -0.010143018
000210 1a 2c f3 bd 7b 22 af bd d7 fa 01 be 1c 51 ff bc
       -0.11873646 -0.085514985 -0.12693344 -0.031166606
000220 c7 83 e4 3c 60 d0 21 be 58 12 88 3d 2e 80 64 3c
       0.027894868 -0.15802145 0.06644124 0.013946576
000230 16 58 0a 3d fd 27 08 3e c1 1e 49 3d 9c 46 2e be
       0.03377541 0.13296504 0.049101595 -0.17019123
000240 09 df 98 3d 46 70 cb 3b a6 27 3d 3d 32 c1 f1 bd
       0.074644156 0.0062084524 0.04618039 -0.11804427
000250 0b de da bd ff 92 2a 3e 97 8a 95 3d df 8f e4 bd
       -0.106868826 0.16657637 0.073018245 -0.11160254
000260 01 67 db bd 87 7f 2d 3e 96 e1 6a bd fc 12 1e 3e
       -0.10713006 0.16943179 -0.05734404 0.1543693
000270 7d 1e 0a 3e ad 2f ea 3d ed 30 1b 3b 19 03 c7 bd
       0.13488193 0.11434875 0.0023680285 -0.09717388
000280 6d ff 96 bd 61 c2 ff bd 71 d0 90 3c 14 87 1f be
       -0.07372937 -0.12488247 0.017677518 -0.15578872
000290 f1 7f ba 3d ac 22 3b 3e 6e 95 09 be e4 ee e0 bd
       0.09106434 0.18274945 -0.13435909 -0.10983065
0002a0 28 5b 3a 3e 67 f3 d9 bd 2a c0 d6 bc c9 49 3b 3d
       0.18198836 -0.106421284 -0.026214678 0.045724664
0002b0 dc a0 c5 3d 14 36 c0 3c cc aa 98 3a 29 6d 3a bd
       0.09649822 0.023463286 0.0011647581 -0.04551426
0002c0 e2 fc 36 bd c2 a6 90 3d 9e bc 1a bc 6b 2c 8a 3d
       -0.04467476 0.070630565 -0.009444384 0.06746753
0002d0 7e 01 55 3d 62 17 ca bd ec da a6 bd 25 7b 8d bc
       0.052003376 -0.09867741 -0.08147225 -0.017270634
0002e0 74 01 d1 bc 46 f5 c1 bc 17 2c 77 bd de 0d c6 bd
       -0.025513388 -0.023676526 -0.06034478 -0.09670614
0002f0 a5 63 07 bd 51 13 10 3e 6f a0 f7 3c 79 d4 d3 bd
       -0.033054013 0.14069869 0.030227868 -0.1034326
000300 99 aa 96 3d 81 51 20 3d 86 9f 20 be 0b 7c 8a 3d
       0.07356758 0.03914023 -0.15685853 0.067619406
000310 8e 51 35 bc 71 fd d8 bd 8f 82 53 be eb ef 23 be
       -0.011066807 -0.10595215 -0.20655273 -0.1600949
000320 bb 32 84 bd fa d5 fd 3d 6a f2 1b bc 98 50 52 bd
       -0.064549886 0.123943284 -0.009518245 -0.05134639
000330 25 a6 c3 3b 40 b7 29 3e ad 22 46 3e ee 44 11 3e
       0.0059707337 0.1657381 0.19349165 0.14186451
000340 b6 ef 63 3c 9c c2 2c 3e d2 43 b0 3d a4 d4 04 be
       0.013912132 0.16871113 0.08606686 -0.12971741
000350 5d b0 5b bd e2 e2 7f bd 55 22 2a be f6 29 40 3d
       -0.05363499 -0.06247223 -0.16614659 0.046915017
000360 76 5f b3 3d 74 97 00 bd 36 85 67 3d 41 5e 96 3d
       0.08758442 -0.031394437 0.056523524 0.07342196
000370 16 cb 8f bd 80 bb d4 bb f0 40 89 3d a8 33 2b bc
       -0.070211574 -0.0064920783 0.06701839 -0.0104493275
000380 54 e0 1a be 59 5f b6 bd 5e b2 b8 3d 01 93 02 3e
       -0.15124637 -0.08904905 0.09018396 0.1275139
000390 a8 d0 e1 bc e1 42 00 3e 02 06 02 3e 7e ad 02 be
       -0.027565315 0.12525512 0.12697604 -0.12761495
0003a0 1d 33 1b be 54 00 db bc 28 61 fe bb 14 e9 fc 3d
       -0.15156217 -0.026733555 -0.007763047 0.123491436
0003b0 da b2 e1 bc 05 78 e9 bd 98 be 0a 3e d6 7f 0a 3e
       -0.027551103 -0.11399845 0.13549268 0.13525328
0003c0 7d bf 18 bc 62 48 ad 3d f3 5e 74 bd 33 1c 8c bd
       -0.009322998 0.084610716 -0.059660863 -0.06841316
0003d0 e5 88 31 3e 4e a0 d7 3d ef 0c 95 bd ff 30 08 bd
       0.17337377 0.105286226 -0.072778575 -0.03324985
0003e0 47 b3 52 3d 5f e7 84 bd bb c7 4d bd 9f b6 f9 bd
       0.051440503 -0.06489443 -0.050239306 -0.12193035
0003f0 f4 95 e6 3c 64 e2 1d 3d fd 8b e4 3d 15 13 e6 3c
       0.028147675 0.03854598 0.11159513 0.02808527

arith.constant3 f4 [128]
000000 c9 d5 99 3b 23 aa 50 3c ff c5 b0 bb 23 68 cc 3a
       0.0046946746 0.012735876 -0.0053946967 0.0015595
000010 42 ed e7 3b c8 77 c9 bb 31 d3 8e 3b 25 f2 10 bc
       0.007077844 -0.0061483122 0.004358672 -0.008846794
000020 3d be 94 bc 34 07 cc 3b a8 83 73 bc a0 f8 30 bc
       -0.018157119 0.0062264446 -0.014862932 -0.010801464
000030 c8 4f 45 3b 0c b7 36 3b de af a9 bb 81 3b dd 3b
       0.0030107368 0.00278801 -0.0051784357 0.006751478
000040 56 03 b6 bb e6 8f c4 bb 23 19 8f bb 0b fa b5 bb
       -0.005554597 -0.0059985993 -0.00436701 -0.005553489
000050 ba bc c4 bb a6 25 09 3b b4 bb c4 bb 26 fa 8b 3b
       -0.0060039433 0.0020926981 -0.0060038213 0.0042717634
000060 2b 30 92 3b 67 2c 84 bc 56 ab c4 bb cf 18 eb bb
       0.0044613085 -0.016134454 -0.00600187 -0.0071745883
000070 a6 b6 c4 bb de bd b4 bb c4 0b 26 3c fe c8 db 3a
       -0.0060032187 -0.005515798 0.010134641 0.0016768274
000080 cb 20 90 3c 82 85 a6 bc 95 99 c4 bb fd 13 d8 bb
       0.017593762 -0.020327333 -0.0059997537 -0.0065941797
000090 da 17 bb 3b 92 ec 65 3b d5 8a c4 bb 5a 94 ac bb
       0.0057096304 0.0035083634 -0.0059979954 -0.0052667083
0000a0 3f b7 2a 3b 7e d9 30 bc 09 97 5a 3b 70 b0 be bb
       0.0026049165 -0.010794042 0.0033354184 -0.005819373
0000b0 5c 5e 70 3b 50 d5 b1 bb 2f 11 bf 3b 5a 01 39 bc
       0.0036677336 -0.00542704 0.005830906 -0.011291826
0000c0 3b 69 09 3c b4 31 a7 bb 8f f7 2d 3b 5a 8e 0d bb
       0.008386905 -0.0051023606 0.0026545261 -0.002159974
0000d0 d8 0e 91 3b 93 cb b5 bb e1 7f a6 bb 33 aa c4 bb
       0.0044268183 -0.0055479496 -0.0050811623 -0.0060017346
0000e0 43 c6 17 3c 78 f6 95 bc c2 f0 f1 bb 0f e1 b8 bb
       0.009263578 -0.018306002 -0.007383437 -0.0056420635
0000f0 d4 bc 7b 3a 6b d2 f7 ba ea ca b2 bb 88 39 45 3c
       0.0009603028 -0.0018907314 -0.005456318 0.012037642
000100 4a 2c a7 bb 19 35 26 bb c6 23 05 bc 03 a5 c4 bb
       -0.005101715 -0.0025361239 -0.008126205 -0.0060011162
000110 bf 43 ef 3a 3f 50 24 3b 68 db 26 bc b4 1d 82 ba
       0.0018254443 0.0025072244 -0.010184146 -0.0009927065
000120 52 bb d6 bb 62 7f 16 3c d9 b6 c1 3b 42 c4 c4 bb
       -0.006553092 0.009185644 0.0059116897 -0.006004841
000130 1e cd 13 3c 6e c3 c4 bb 18 be c4 bb 6e c3 c4 bb
       0.009021072 -0.0060047423 -0.0060041063 -0.0060047423
000140 be 78 e8 3b 0e e0 49 3c 4f 1a 26 bc 90 35 d9 bb
       0.0070944717 0.012321485 -0.010138108 -0.0066286996
000150 bc 1f 39 3c 31 94 51 3c 6c bb 99 bb d7 6c 02 3b
       0.01129907 0.012791679 -0.004691532 0.00199013
000160 07 de 2b bc 68 7e 3a 3b 6a b9 a7 bb 4f c0 c4 bb
       -0.010489947 0.0028456692 -0.0051185386 -0.0060043703
000170 e9 fa 1c 3b 73 92 53 bb c2 16 a9 bb c2 c2 c4 bb
       0.0023953265 -0.0032283335 -0.0051601836 -0.0060046623
000180 a6 1f c9 3b a0 8b b5 bb 1a 65 a5 3b 5d c0 a7 bb
       0.006137806 -0.0055403262 0.0050474526 -0.005119367
000190 ef 43 21 3c b7 10 08 3c 18 33 bc 3c 13 51 c8 bb
       0.009842857 0.008304766 0.022973582 -0.0061131804
0001a0 db bc f5 3a 20 a4 8f bc 1f 09 df ba bc 71 c4 bb
       0.00187483 -0.017534316 -0.0017016268 -0.0059950035
0001b0 98 2c 17 bc 40 81 77 3c 6f ff f5 3b bb c4 2d 3b
       -0.009226941 0.015106499 0.0075072567 0.0026514966
0001c0 2e e3 32 3b 94 c1 c4 bb 46 2e 7a bb 6e 52 62 bb
       0.0027296054 -0.0060045216 -0.0038174554 -0.0034533995
0001d0 a9 c7 9d bc df 40 42 ba 43 53 23 b9 5f ff 65 3b
       -0.019260244 -0.0007410179 -0.00015575909 0.003509484
0001e0 cd 80 a7 bb 50 ad 05 3c 20 29 84 bc fb 81 42 b9
       -0.00511179 0.008158997 -0.016132891 -0.00018549703
0001f0 41 1c dd bb 92 f3 b8 bb f7 b2 c4 bb 78 c6 c3 3b
       -0.006747753 -0.00564427 -0.0060027796 0.005974587

arith.constant4 f4 [3]
000000 17 57 a5 bb 85 cd 72 ba e7 e2 83 3b
       -0.0050457823 -0.0009262192 0.0040248516

arith.constant5 f4 [3, 128]
000000 e5 e0 ed ba 48 59 11 be db f4 3e bd 61 98 80 3e
       -0.0018148689 -0.14194214 -0.04662023 0.25116256
000010 5b 70 9c 3d ea 16 25 bd b0 3b fb 3d 22 a8 1d 3e
       0.076386176 -0.040305056 0.12267244 0.15396169
000020 58 5f dd bd 49 8f d9 3d 09 02 d0 bc de 89 bb 3d
       -0.10809201 0.106230326 -0.025391595 0.091571555
000030 c2 da 71 be 92 f7 40 3e e0 60 0d be 37 b1 fa bb
       -0.23618606 0.1884444 -0.13806486 -0.00765052
000040 4e 55 2a be 89 37 13 be af 5f 02 be 8d d5 76 bd
       -0.16634104 -0.14376654 -0.12731813 -0.06026225
000050 32 d4 83 3c df 66 8d bd ce fb 45 be 01 7c 20 3e
       0.016092394 -0.06904387 -0.19334337 0.15672304
000060 ed b9 40 3e 4d bd b4 3d d5 32 b0 bd 05 d0 03 3e
       0.18820925 0.08825169 -0.086034454 0.12872322
000070 3b 8b 3e 3e 35 df 8e 3d 80 30 c9 3d 0f 88 20 be
       0.186078 0.06976167 0.09823704 -0.15676902
000080 a4 f8 34 3e a0 2c 1b be 04 f2 92 bd c6 f5 43 3e
       0.17672974 -0.15153742 -0.07175067 0.19136724
000090 6b eb 89 bd 60 ce 07 bd 79 a7 54 be 07 54 95 3d
       -0.067343555 -0.0331558 -0.20767011 0.072914176
0000a0 5d b9 11 3e 39 33 3e 3d 16 46 0d be 26 4f da bd
       0.14230867 0.04643557 -0.13796267 -0.106596276
0000b0 b8 75 7c 3e 00 fb 2d 3e c2 5c 11 3e 50 c1 1f 3e
       0.24654281 0.1699028 0.1419554 0.15601087
0000c0 b2 3e 75 3e a9 d1 b8 bd c2 8f e7 bb 71 e4 2f 3d
       0.23949698 -0.090243645 -0.007066698 0.042942468
0000d0 22 39 7a be 38 a8 76 3d a1 2b a0 3d 77 fb 94 3d
       -0.24435857 0.06021902 0.078208216 0.072745256
0000e0 06 83 25 3d 9c 2f a9 3d e4 52 16 be 64 3c 04 be
       0.040408157 0.08261034 -0.14680058 -0.12913662
0000f0 ac 17 57 be b7 eb 8a bc df cc 58 be 13 57 77 be
       -0.21005124 -0.0169581 -0.21171902 -0.2415431
000100 3b 33 7c 3d 7e aa 58 be 8d 39 b8 bd c3 28 b8 bd
       0.061572295 -0.21158788 -0.08995352 -0.0899215
000110 50 f4 8c be 7b ef 4c bd 11 ff 1a bd cc a8 90 bd
       -0.27530146 -0.050033074 -0.037840907 -0.070634454
000120 df d3 6b 3d 4b 31 2f bb 51 08 66 3e c8 e1 e4 3d
       0.057575103 -0.0026732262 0.2246411 0.11175877
000130 f1 22 5e 3e d4 f6 19 3e 42 d5 5b be 4b d8 b5 bd
       0.21693017 0.15035564 -0.2146807 -0.08879145
000140 60 46 5f 3c 75 2d de bd 58 d7 6a 3e 05 1d 5d 3e
       0.013627619 -0.10848514 0.2293371 0.21593101
000150 91 0a af 3d f4 ee 3d bd 64 9b ec 3d 6d e5 5b 3c
       0.08546937 -0.04637046 0.11553076 0.013421399
000160 80 8b 4d 3e 04 a9 1c be ae 5a d8 3d 1b f9 25 3e
       0.20072746 -0.1529885 0.10564171 0.16208307
000170 35 47 5a be 3e 5a 26 3e 93 50 5b 3d 2b 4f 09 3e
       -0.21316226 0.16245362 0.05354364 0.13409106
000180 60 f1 93 3d 27 a5 a1 bd 90 6d 01 3e d3 87 03 be
       0.07223773 -0.078928284 0.12639451 -0.12844782
000190 1f 7c 74 be c0 75 6b 3e 1f 2b 45 be 45 12 1c 3e
       -0.23875473 0.22994137 -0.1925473 0.15241344
0001a0 62 d6 63 3e 88 05 81 3d d0 d3 2b 3e 0e 19 bb bc
       0.2224975 0.06299883 0.16780019 -0.022839095
0001b0 3e 03 5c bd a5 ac 5a 3e a4 d3 f8 3d 63 7b 20 bd
       -0.05371403 0.21354921 0.12149742 -0.03918017
0001c0 77 33 2d 3e 13 b4 ae 3d 18 35 09 be d5 c0 82 be
       0.16914164 0.0853044 -0.1339916 -0.25537744
0001d0 4c 8a 38 3d 1b 9f 3b be 4f 6f 59 3b 15 de 37 be
       0.045053765 -0.18322413 0.0033177917 -0.17955811
0001e0 10 6e 25 3e e3 36 de 3d 7e 06 8f 3c 8f aa 85 3d
       0.16155267 0.108503126 0.01745915 0.06526672
0001f0 78 8f f5 3d d2 02 4a 3e 90 e3 0b 3e f0 a9 37 be
       0.11990255 0.19727638 0.13661027 -0.1793592
000200 b2 5c d2 3d 5b 68 4f 3e f7 07 55 be e0 c8 69 be
       0.102715865 0.20254652 -0.2080382 -0.22830534
000210 7b a4 04 3e a7 9a 6e bc a1 78 5d bd 58 6a 72 3d
       0.1295337 -0.014563239 -0.05407012 0.05918345
000220 8b ca 08 bc b1 de 52 3e e3 0b db 3d 2a e2 23 be
       -0.008349071 0.20592763 0.106956266 -0.16004243
000230 88 47 4c be 52 b9 df bb a1 f8 c0 bd ad 7d 44 be
       -0.19949162 -0.006827512 -0.09422422 -0.19188567
000240 f4 e7 37 be 3f 92 e3 bd 6a 1c 6a 3e d2 b8 64 3d
       -0.17959577 -0.111118786 0.22862402 0.05584032
000250 4b 92 60 3d 39 12 0c bd 88 81 64 bd 3c 9d eb 3d
       0.054827016 -0.034197066 -0.055787593 0.115045995
000260 0e 89 26 3d 09 fa 00 be 0d 70 47 3d 64 dd ab bb
       0.04065805 -0.12595381 0.048690844 -0.0052448977
000270 a7 95 26 3e 76 20 d4 3c f7 bc 06 3c c3 9d 78 3e
       0.16268025 0.025894385 0.008223764 0.24278931
000280 80 a9 76 3e 87 cd 0d 3e e0 d3 1d 3d 90 c2 e3 3d
       0.24088097 0.13847934 0.038532138 0.11121094
000290 e1 2f 3f 3e db f3 5d be 28 a2 2f be 27 49 2f 3e
       0.18670608 -0.21675055 -0.17151701 0.17117749
0002a0 0f bd 87 bd a7 b1 72 be e7 71 42 be e4 e0 35 be
       -0.06627857 -0.23700581 -0.18988763 -0.1776157
0002b0 db 00 50 3e 5f fb 5c be 8e 7c 6a be 2f a4 8a 3d
       0.20312826 -0.21580265 -0.22899076 0.06769597
0002c0 67 7b 22 3e b6 fa 23 be d9 cb c4 bb a1 65 3c be
       0.15867387 -0.16013607 -0.006005746 -0.18398143
0002d0 a8 81 c4 3a 6c a4 01 3e 32 6d e7 bd 78 72 98 bd
       0.0014992254 0.12660378 -0.11300124 -0.07443708
0002e0 4a 7b 5a 3e 6c 17 2d 3d f1 59 f4 bd 61 93 de bd
       0.21336094 0.042258665 -0.119312175 -0.10867954
0002f0 3b 3f 4c 3e 3d 0e 03 be 91 ed 53 be 64 39 61 3c
       0.19945996 -0.127984 -0.20696093 0.013746593
000300 4a a7 e4 bd 8e a4 d4 3d 40 93 86 bd 08 c4 c6 bd
       -0.1116472 0.10382949 -0.065710545 -0.09705359
000310 5e 76 12 3e 25 9d 7b 3e 17 b1 1d 3e 42 a9 81 be
       0.14302966 0.24571665 0.15399586 -0.25324446
000320 ea d4 25 3e bd b6 1d bd 6d bf 14 be bc 4b 25 be
       0.16194502 -0.03850435 -0.14526148 -0.16142172
000330 2f 17 a6 3c 73 e5 37 3e a3 33 e9 3d e0 23 00 3e
       0.020274727 0.17958622 0.11386802 0.12513685
000340 25 20 df 3d d8 21 b7 3d 7e 5c 74 be 14 86 7f bd
       0.10894803 0.08942002 -0.23863408 -0.062383726
000350 ba 13 3a 3e 58 11 a6 3c 6c 7f 10 3e d7 2a 78 3e
       0.18171588 0.020271942 0.14111108 0.24235092
000360 96 a5 8a bd 1c f5 8b 3e 7c 05 7f 3d e7 de 53 3e
       -0.06769864 0.2733544 0.06226109 0.20690499
000370 04 76 bf 3c 0d be 9d bd 7e df 34 be ec e3 c6 bd
       0.023371704 -0.07702265 -0.1766338 -0.097114414
000380 b5 c0 6e 3e 63 1e 39 3e ec b2 6b be 95 92 28 3e
       0.233157 0.18077998 -0.23017472 0.16462167
000390 a9 48 38 3d 5f f1 74 be f0 35 dc bc e3 5f 64 3d
       0.04499117 -0.23920201 -0.026881188 0.055755507
0003a0 46 f1 da bd 95 5b 45 3e a9 d6 64 bd d3 69 cb 3c
       -0.106905505 0.19273217 -0.05586878 0.024830734
0003b0 d1 eb 15 be 83 5b b5 3d 1c c2 ce 3d 26 33 72 3d
       -0.14640738 0.08855345 0.10095617 0.05913081
0003c0 df be 33 be 94 09 11 be 17 aa 75 be 40 45 50 be
       -0.1755328 -0.1416381 -0.23990665 -0.20338917
0003d0 58 71 1f be e2 95 de bd 0e b2 87 3e 5c 49 db 3d
       -0.15570581 -0.10868432 0.26503032 0.107073516
0003e0 38 56 01 3d 39 61 b1 bd d1 1e 5e 3c 89 2c 4b be
       0.031576365 -0.08661122 0.013557152 -0.19841208
0003f0 46 d5 47 3e 83 d9 cc bc 4a 2a 23 3e 8f 45 a7 3b
       0.19514951 -0.025006061 0.15934101 0.0051047276

arith.constant6 f4 [64]
000000 ae 61 18 3b b4 33 42 bc 4e 72 9d 3c e8 5b 47 bb
       0.002325158 -0.011853147 0.019219544 -0.003041977
000010 b5 30 f9 3b c4 ef b0 bb 2a 1e ad ba 35 90 88 bc
       0.0076046833 -0.005399676 -0.0013207842 -0.016670326
000020 fe eb b5 bb f8 12 42 3c 9a 9e 41 bc dd 4d db 3c
       -0.005551814 0.011845343 -0.011817599 0.026770527
000030 99 6a 93 bc 0a 99 fd bb 6c 0d 4d bc 84 94 a4 bc
       -0.017995166 -0.007739191 -0.012515407 -0.020090349
000040 bd af 5a bc 5c d0 cf bc de 8f 1b 3c 01 43 22 bc
       -0.013347563 -0.025367908 0.00949475 -0.00990367
000050 0e c1 e5 bb aa e3 e7 bb d5 4e ad 3b bc 36 ad 3c
       -0.0070115393 -0.0070767 0.0052889385 0.021144263
000060 3f 7e f9 3b 2a fb bb ba e5 0e 62 bb 98 8c 63 bc
       0.0076139267 -0.001434182 -0.003449374 -0.013888501
000070 38 b4 9b bc 3f 45 95 bb dc ab 6c 3c 97 14 53 bc
       -0.019006833 -0.004555374 0.014445271 -0.012883327
000080 df 9f a8 3c 1a ca 2e ba 5c 47 be bb 82 11 62 3c
       0.020584045 -0.0006667689 -0.0058068465 0.0137981195
000090 0b dd 8a bb 18 c5 78 bc d5 6b eb 3b f0 fe 4c bc
       -0.004237776 -0.01518371 0.0071844854 -0.012511954
0000a0 30 22 f3 bb f4 a7 a6 3c 29 fe 86 bb 81 10 16 bc
       -0.007419847 0.020343758 -0.0041196537 -0.009159208
0000b0 bd ac 3a bc cb 80 87 bb 89 e1 50 3c 8a c5 2b bc
       -0.011393723 -0.0041352264 0.012749084 -0.010484109
0000c0 f1 a1 7d b9 95 2e 54 bc 2c d3 cc ba 90 2a 29 3c
       -0.00024188288 -0.012950559 -0.0015626899 0.010325089
0000d0 ed 0d e8 3b e8 9c a3 bc d2 aa 93 bc b2 f0 ad 3a
       0.007081738 -0.01997228 -0.01802579 0.0013270585
0000e0 aa 2d 9b bc 1e 4e 7e 39 02 e1 32 bb 37 0c 4a 3c
       -0.018942673 0.00024252429 -0.002729476 0.012332014
0000f0 9a 43 17 3c 85 95 a4 ba ea 36 85 3b da 4a f8 bb
       0.009232426 -0.0012556767 0.004065384 -0.0075772824

tfl.pseudo_qconst i1 [64, 3, 3, 32]
000000 c2 fa ba db 35 d2 c7 e9 09 bd e0 f9 cd 22 10 d9
       -62 -6 -70 -37 53 -46 -57 -23 9 -67 -32 -7 -51 34 16 -39
000010 fa 3f 81 ed 1f e8 c8 25 c4 c4 28 06 d3 a8 da b2
       -6 63 -127 -19 31 -24 -56 37 -60 -60 40 6 -45 -88 -38 -78
000020 05 02 96 cb 0e c7 d0 e2 ef 8b f0 31 b5 fe e2 01
       5 2 -106 -53 14 -57 -48 -30 -17 -117 -16 49 -75 -2 -30 1
000030 a1 2a aa eb ba d3 f3 1e bc 12 ff e0 46 d8 c3 bd
       -95 42 -86 -21 -70 -45 -13 30 -68 18 -1 -32 70 -40 -61 -67
000040 ad c0 ae fc c4 f5 04 c8 fa d0 3e e6 d7 19 e3 cd
       -83 -64 -82 -4 -60 -11 4 -56 -6 -48 62 -26 -41 25 -29 -51
000050 e2 e6 ee d9 c7 33 02 b7 34 24 1a b3 ce ae 2f ca
       -30 -26 -18 -39 -57 51 2 -73 52 36 26 -77 -50 -82 47 -54
000060 d5 0f 08 03 a0 fe e0 dd d4 99 02 c4 d6 0d d3 32
       -43 15 8 3 -96 -2 -32 -35 -44 -103 2 -60 -42 13 -45 50
000070 13 32 9a 01 29 22 a7 25 22 3e 33 eb 2e c0 eb 00
       19 50 -102 1 41 34 -89 37 34 62 51 -21 46 -64 -21 0
000080 d2 db dd b4 b0 d7 05 f4 ca ac 36 ee ba 22 00 af
       -46 -37 -35 -76 -80 -41 5 -12 -54 -84 54 -18 -70 34 0 -81
000090 28 f9 18 bd eb 9c c4 31 ec 04 ed c0 0d ce b0 c7
       40 -7 24 -67 -21 -100 -60 49 -20 4 -19 -64 13 -50 -80 -57
0000a0 f1 06 f8 cf 07 d1 e1 b2 f8 f7 3e c2 ff 95 1d aa
       -15 6 -8 -49 7 -47 -31 -78 -8 -9 62 -62 -1 -107 29 -86
0000b0 eb dc d2 f0 22 e8 e9 06 f7 30 fb ab f8 16 a4 dd
       -21 -36 -46 -16 34 -24 -23 6 -9 48 -5 -85 -8 22 -92 -35
0000c0 53 39 fc ea d2 0b d2 1d a8 26 fa 03 dd f9 c6 f0
       83 57 -4 -22 -46 11 -46 29 -88 38 -6 3 -35 -7 -58 -16
0000d0 42 d5 ed 1b 40 1e 11 42 fd 05 19 ba 09 f4 14 2d
       66 -43 -19 27 64 30 17 66 -3 5 25 -70 9 -12 20 45
0000e0 0e de f8 f5 c9 ea b5 0b d7 b0 3b 00 c1 e3 98 da
       14 -34 -8 -11 -55 -22 -75 11 -41 -80 59 0 -63 -29 -104 -38
0000f0 c6 d7 e5 2f 22 db 02 e1 2b e4 2a af 40 ee e2 03
       -58 -41 -27 47 34 -37 2 -31 43 -28 42 -81 64 -18 -30 3

tfl.pseudo_qconst1 i1 [128, 4096]
000000 ed f7 ef 16 de f3 e1 12 15 1a fd 21 ed 0d 1b f0
       -19 -9 -17 22 -34 -13 -31 18 21 26 -3 33 -19 13 27 -16
000010 e8 09 fd ec eb ef de e0 ed fe 15 21 07 17 eb e1
       -24 9 -3 -20 -21 -17 -34 -32 -19 -2 21 33 7 23 -21 -31
000020 ef da 23 09 e0 1a fd db f0 e4 fa eb 08 14 02 e9
       -17 -38 35 9 -32 26 -3 -37 -16 -28 -6 -21 8 20 2 -23
000030 f4 f0 01 0c 03 14 f1 f6 1a dd d3 ff e0 f8 e4 eb
       -12 -16 1 12 3 20 -15 -10 26 -35 -45 -1 -32 -8 -28 -21
000040 13 ff eb 01 12 17 17 f9 02 02 1c f9 16 22 13 08
       19 -1 -21 1 18 23 23 -7 2 2 28 -7 22 34 19 8
000050 f4 eb fb 1f d3 11 ec 16 0f f0 ec f7 dd fe 19 e1
       -12 -21 -5 31 -45 17 -20 22 15 -16 -20 -9 -35 -2 25 -31
000060 0e 0f fe ed f0 09 f0 e0 00 e4 0e 04 21 ea f0 f7
       14 15 -2 -19 -16 9 -16 -32 0 -28 14 4 33 -22 -16 -9
000070 de 1b 14 09 03 dc fb 1d 16 ea 11 09 00 fa f9 e6
       -34 27 20 9 3 -36 -5 29 22 -22 17 9 0 -6 -7 -26
000080 eb 09 fd ea 29 ec 1a 05 0f e6 e4 02 f2 f3 1e 12
       -21 9 -3 -22 41 -20 26 5 15 -26 -28 2 -14 -13 30 18
000090 e3 f2 09 12 e3 1d 13 00 dd 14 ef 26 04 14 04 0d
       -29 -14 9 18 -29 29 19 0 -35 20 -17 38 4 20 4 13
0000a0 e9 fc 24 e2 12 e8 f3 06 18 02 00 e8 1b fd 03 06
       -23 -4 36 -30 18 -24 -13 6 24 2 0 -24 27 -3 3 6
0000b0 00 e7 df fd fa 10 ff f3 12 05 df f2 06 11 f9 f3
       0 -25 -33 -3 -6 16 -1 -13 18 5 -33 -14 6 17 -7 -13
0000c0 e9 e3 57 fb 05 06 20 19 1d 2c 03 f4 14 01 ef f5
       -23 -29 87 -5 5 6 32 25 29 44 3 -12 20 1 -17 -11
0000d0 f5 1c e1 e2 ec f0 d7 da 14 fa e6 0d e5 14 e8 ea
       -11 28 -31 -30 -20 -16 -41 -38 20 -6 -26 13 -27 20 -24 -22
0000e0 f5 0b f6 f0 ef 2f 11 27 0e 10 da de 1a 0a ee 06
       -11 11 -10 -16 -17 47 17 39 14 16 -38 -34 26 10 -18 6
0000f0 19 08 26 f2 dc fe 03 d5 e3 0c 1b f5 cf 1e 1b 1f
       25 8 38 -14 -36 -2 3 -43 -29 12 27 -11 -49 30 27 31
